profile_chrome/profile_1/optimization_guide_model_store/20/E6DC4029A1E4B4C1/D7CBEB878E14D8E6/model.tflite (tflite, 64852 bytes, 5 tensors)

arith.constant f4 [1, 64]
00000000: c7b8 49bd 3bf6 7abe 8a15 253e fa08 993e
00000010: 87d1 0b3e 7166 3bbe 4119 3b3e c67c a6bb
00000020: 8036 313e 367c 5ebe e763 933e fff0 d03e
00000030: 5bd7 093e 5785 47be 746e b3be f9ec 9e3d
00000040: a3e9 ffbd ded3 f33d b4ab 333e b014 1a3e
00000050: 737f 863e cdd6 9dbe c245 1b3e c84c 8bbb
00000060: 5193 9d3e 9192 463e a551 7bbe d52b 80bd
00000070: 4ff1 e9bb 070e 4e3e efbb 9bbe 21ae 0abd
00000080: 5dd3 88be a183 8c3d 3392 103f 613a d0bb
00000090: 82ab cd3d 9da6 993c 4441 823e cc76 3ebe
000000a0: 69a7 c9bd 1a35 58be c6fa 84be af4e 2b3e
000000b0: 5676 b3bd d54c 803e b5e8 913e e78a db3d
000000c0: e79c 263e cc52 913e 9196 853e a001 543e
000000d0: 6b99 3a3e d20a 9e3e c224 2c3d 1f52 f9bd
000000e0: 306a 33bd 5a29 c73d b279 75be 95d9 7f3e
000000f0: 9a3a 42be 6849 3e3e 3c3a 8bbd e0ca 63be
-0.049248483 -0.24507992 0.16121498 0.2988966 0.13654147 -0.18300797 0.18271352 -0.005080792
0.17305946 -0.2172707 0.28787157 0.40808865 0.13461058 -0.19484459 -0.35045207 0.07760043
-0.124957345 0.11905645 0.17545968 0.15046954 0.2626911 -0.30827942 0.15163329 -0.0042510964
0.30776456 0.19391848 -0.24542864 -0.0625836 -0.007139362 0.20122539 -0.3041682 -0.03385747
-0.26723757 0.06861044 0.5647308 -0.0063546156 0.10042478 0.018756205 0.2544042 -0.18600005
-0.09846384 -0.21114007 -0.25972575 0.16729234 -0.08762805 0.25058618 0.28497854 0.10719853
0.16270791 0.28383482 0.26091436 0.20703745 0.18222587 0.3086763 0.042027242 -0.121738665
-0.04380244 0.09724684 -0.23972204 0.24985345 -0.18967667 0.1858269 -0.06798217 -0.2224536

arith.constant1 f4 [64, 128]
00000000: cd27 933d ee37 013e 33ce 0cbc ffbb fcbc
00000010: a060 743d 1b81 83bd 54c7 8abc 7053 b33d
00000020: 3268 c3bc 3fc4 123e 3b67 ca3d 6854 523c
00000030: a4fc fcbd c9a1 30be f3eb 003e 817d 293e
00000040: 03c0 febd 84f5 353d 88a2 cf3d 2b01 92bc
00000050: 05ef 2b3d 9754 e3bd 3f42 66bd 9d09 283e
00000060: 0031 dbbc 8d08 003e 6776 86bd c199 39be
00000070: 3169 0b3e c832 f6bc 5735 db3c 07dd 853d
00000080: 69ea f7bd bfa6 1fbe d895 d63d b57a 123e
00000090: 557a e8bd a3e7 33be 0a5e 7b3d fbb9 88bd
000000a0: 6e62 293e e653 2ebe c2ac d7bd 8ebd 0cbe
000000b0: af80 0c3e 2a97 953d b2e6 1a3c 3756 09be
000000c0: 803f 8fbd b4c1 85bd acb7 57bd 622c 383d
000000d0: 49dd 2ebe 815d 9f3c fb66 173e 5241 6e3d
000000e0: 40f1 1d3e 5a35 02be 26c5 0abe 7dae 073e
000000f0: d176 06bb 072c 3abe 90dc 85bd 3d7f f2bd
00000100: c26c e63d 55e5 913c 23b5 62bd dc07 353e
00000110: 1aa1 3abe 83db 273e e7c2 913d 6dc4 ab3c
00000120: 83c1 213d 4ad6 d93d 3732 163e 5ef9 b63d
00000130: 25f5 dbbc eb24 1cbe 6df1 36be b9a6 c1bd
00000140: 415c a3bd a757 003d 49f7 af3d 081a bcbc
00000150: ccd6 883d d629 853d 66d7 23be 7657 153c
00000160: 80e3 fcbd 2100 a03d c673 b63d 7047 143e
00000170: 7bf9 043e 456f 443d bcd4 d33d 7638 f8bd
00000180: 413e d33d d64e 803c 2073 5f3d 3386 6d3d
00000190: 7117 bcbd 6966 813d 5854 c9bc e925 2f3e
000001a0: 5d90 ed3c 74e6 ebbd c074 40be 2fd1 b93b
000001b0: 008f fe3d 0615 dcbd 3df9 183b 0b90 f6bd
000001c0: e500 03be 73ef c43d 335d 023e 4462 2f3d
000001d0: 3047 83bd edc9 b13b 3b10 2a3d ebc5 18be
000001e0: 21f0 41bc dc55 1bbb 72d8 cbbd e088 003d
000001f0: 4430 05be 2948 a2bd 9c18 333d c662 78bd
00000200: 8824 02be fef6 9c3d 228d 0b3e b149 c23c
00000210: 8733 48bd e578 0f3e 1f46 1e3e e119 4dbd
00000220: 1eb7 d6bd 4274 2dbe ba9a 143e 407e 21be
00000230: 9b89 163b 8559 e2bd 1574 62bd d469 c13d
00000240: d1c7 67bd 4480 c13d e30e 92bd 58d8 603c
00000250: 2915 033d 2ff2 8e3b a2a8 b7bd c9ac 723d
00000260: 7c01 283d c854 8fbd fb2c 2ebc b20a 38bd
00000270: d452 223e 3bec 2ebe 8f0d afbd 9cc9 90bd
00000280: 42b8 23bd 5ef8 913c 5d71 53bd ac71 0cbe
00000290: 6afb e93d 820e 87bc cf17 31be d4fe f4bd
000002a0: 9cda 123d 6e93 13be 25c9 1dbe 08ba 01be
000002b0: b01e 293d 05a8 28bb 03fc 24be 635f cebd
000002c0: 9f5c 643d 9efd 833d fbad 0bbb f10d e63c
000002d0: cb49 9c3d b85f d13d 2ca1 2a3e f516 e3bd
000002e0: 9a6c 163e 4572 1a3d e79c 313d 0eda 3fbd
000002f0: f69e 5fbc 06ed bf3d 906c 3f3d 8609 b0bd
00000300: b6f6 a03d 30ea a03d 35f2 ef3d 5a17 06be
00000310: 5c42 e4bc 81bf e7bd 0270 773d 9415 f1bd
00000320: 89c8 25be 6ee3 053e 5983 2abe 44b9 3bbd
00000330: f269 a73d 33ff bfbd 3b97 213c 805d 1f3e
00000340: 088e 73bc ba57 8b3c cc97 e1bd 4b23 cf3d
00000350: 88e1 063e 9e5c 053e 8b67 be3d c520 2abd
00000360: e52a 1b3e 7571 20be b102 28bc ca99 423e
00000370: dd42 4c3e d7be ec3d f3a5 c23d faf5 13be
00000380: 113a 113d fb63 0ebe a77c 903a 1c26 203d
00000390: eef9 25bb b374 c7bd b56a bb3d 0c22 663d
000003a0: 19a1 4c3e 0841 d6bd 27d7 d8bc 5c35 9bbd
000003b0: a0e1 14bd c2d9 123e 95f2 23bd 0cd4 bdbd
000003c0: 73b0 683d 8349 073e 9223 b13d 35cd 003e
000003d0: c4bc 503d d095 d9bd 3262 29be e464 013e
000003e0: e1a0 eebd 843c f63d c0b0 20be fade 0cbe
000003f0: 7dca 253e 122f 34bd 5c55 cd3d 3970 3b3e
0.07185326 0.12618992 -0.008594084 -0.030851362 0.05966246 -0.06421109 -0.01694075 0.08756149
-0.023853395 0.14332674 0.09882971 0.012837507 -0.12352875 -0.17249216 0.12590007 0.16551782
-0.12438967 0.044423595 0.10138422 -0.017822823 0.041975994 -0.111001186 -0.05621552 0.16409917
-0.026756763 0.12503262 -0.06565552 -0.18125059 0.13614346 -0.030053511 0.026758833 0.06536298
-0.12105257 -0.15590952 0.10477799 0.14304622 -0.11351458 -0.17568831 0.06136898 -0.06676098
0.16541454 -0.17024192 -0.10530998 -0.13744184 0.13720964 0.07304223 0.009454416 -0.13411795
-0.069945335 -0.065310866 -0.052665398 0.0449642 -0.17076601 0.019453766 0.14785378 0.058167763
0.15424061 -0.12715665 -0.13551769 0.13250156 -0.0020517597 -0.18180858 -0.065362096 -0.11840675
0.11251213 0.01780955 -0.055348527 0.1767878 -0.18225518 0.16392331 0.07117253 0.020967687
0.039491188 0.106365755 0.14667593 0.08934282 -0.026850292 -0.15248458 -0.17865534 -0.09455628
-0.079765804 0.03133359 0.08592088 -0.022961631 0.06681594 0.0650212 -0.16000137 0.009115091
-0.1234808 0.078125246 0.08908801 0.14480376 0.12985794 0.047957677 0.1034331 -0.12120144
0.10314608 0.015662592 0.05455315 0.05798931 -0.091841586 0.06318361 -0.024576351 0.17104305
0.028999502 -0.11518565 -0.18794537 0.0056706886 0.12429619 -0.107461974 0.0023341917 -0.12039193
-0.1279331 0.09615984 0.12730865 0.042818323 -0.06410062 0.0054256828 0.041519385 -0.1491925
-0.011837036 -0.00237023 -0.09953393 0.031380534 -0.13006693 -0.0792392 0.04372464 -0.060641073
-0.12709248 0.076642975 0.13628057 0.02371678 -0.048877265 0.14010961 0.15456437 -0.05007351
-0.104841456 -0.1693888 0.14512148 -0.15770817 0.0022970203 -0.11052231 -0.055286486 0.09444013
-0.056587044 0.09448293 -0.07131746 0.013723455 0.0320026 0.0043623666 -0.08967711 0.059246812
0.04101704 -0.069985926 -0.010630841 -0.044932075 0.15851909 -0.17082302 -0.08547508 -0.07069704
-0.039970644 0.017818626 -0.051621784 -0.13715237 0.114249066 -0.01648641 -0.17294239 -0.11962667
0.035853013 -0.14411709 -0.15408762 -0.12668622 0.04128903 -0.0025734913 -0.1611176 -0.10076787
0.055752393 0.06444858 -0.0021313417 0.02808282 0.076312624 0.10223335 0.16663045 -0.11088363
0.14689866 0.037706632 0.043362524 -0.046838813 -0.013648739 0.093713805 0.046734393 -0.085955665
0.078595564 0.07857168 0.11716119 -0.13094845 -0.027863674 -0.11315823 0.060409553 -0.11771694
-0.1618978 0.13075039 -0.16651668 -0.04583098 0.08174504 -0.09374847 0.009862716 0.15563011
-0.014865406 0.017009605 -0.11015281 0.101141535 0.13171971 0.13023612 0.09297093 -0.041535158
0.15153082 -0.1566828 -0.010254548 0.19003978 0.19947381 0.11559837 0.095043086 -0.14449301
0.035455767 -0.13905327 0.0011023477 0.039098844 -0.0025325972 -0.097390555 0.09151212 0.056184813
0.19983329 -0.104616225 -0.02646978 -0.07578537 -0.036347985 0.1434088 -0.040026266 -0.0926896
0.0568089 0.13211636 0.086493626 0.1257828 0.05096127 -0.106242776 -0.16541365 0.12636143
-0.11651779 0.12023261 -0.15692425 -0.13756934 0.16190524 -0.043990202 0.10026047 0.18304528

arith.constant2 f4 [128, 12]
00000000: 5ebc a73d 2def 1bbd 25dd 16be 5481 90bc
00000010: d438 7ebc 9fe7 97bd b25c 833b 1b35 e33d
00000020: 4d83 b93c 74da d83d cf49 653b f924 12be
00000030: 947c 3d3e 2010 1f3d dd87 c93d 07a6 a93d
00000040: ba3a 123e 9a3c a4bd 8b42 56bd 998b 8e3d
00000050: 666e 3c3e 36bb 183e 4156 fabd faef 543e
00000060: 576d fdbc 171b 873d ee78 bbbd 5004 963d
00000070: efc5 433e 2d0f 303e 07b6 7fbe 3055 2cbd
00000080: 4351 c4bb 5056 f33d 9f97 5d3e c412 7e3e
00000090: 0c87 393e cecd bb3c 1e7d 9c3d 124f 163d
000000a0: 0b7c 253e 7a3e bdbd 816a 913d a4a3 b3bd
000000b0: 9e93 fd3d 4a54 46be b55b 233e f5cc 4dbe
000000c0: 2adf bc3d b1a1 e03d 2307 4fbe c078 95bd
000000d0: 2a10 613d 650a 4d3e 93e5 93be 9b9c b73d
000000e0: b5bd 093d ca07 403d 10ea 48be 392d e73d
000000f0: eb65 173e 362d 27be d471 cfbc 3baa b73d
00000100: 2e40 29bd 7fe5 e4bd 691d 393e 4ffc d5bd
00000110: 7c7a c9bd ac5c 4b3e b3d6 6dbb ca87 14be
00000120: 6ddb 2dbc e419 ab3d 3b36 e2bd 41ed 843c
00000130: 3394 383d 5e57 81bc 8b28 4c3e 7ee9 ab3d
00000140: ffde 753e 9c49 85bd f776 3d3e 12c9 8fbd
00000150: 6e96 05bd 49b1 38be 2ae0 8c3d fba0 0cbe
00000160: 13f5 153d 5dcc 08be 7828 cc3d 46d9 dd3d
00000170: d828 ffbd f607 febd 723a d7bc 6ccc 33ba
00000180: 4450 733a 78ec 113e c779 cdbd 8d7b 8dbd
00000190: 388c ce3c 3c76 fd3b a1af 95bc 671c 88bc
000001a0: fcbb 02be 6d44 4abe 0a66 373e 6506 12be
000001b0: 4c2d c2bd e7fa 4d3d 91fa 313e e71f 3dbd
000001c0: 63f1 d2bc 0077 28bd 7f35 25be 5869 af3d
000001d0: d5a2 e03d 518e 443d b4bb 0fbe 7efc bebd
000001e0: c25e 93bd dfcf 163e 01f6 c93d e4d7 d1bd
000001f0: 5817 4fbe c2b6 d73c eae4 2c3e 824a 3bbe
00000200: eb98 b53d 7864 ab3d 4e8c d03c 4d7a 8f3d
00000210: d731 dc3c 992c a1bd 6abb 06be f9bd a73d
00000220: 00a6 2cbd 8deb eebd df2e 263c e6ba 713d
00000230: 6dad 083e 9e84 19be 7693 40be 0fb7 6f3d
00000240: 4478 073e 17c7 0dbe 695e 563e 9836 2bbe
00000250: 8f18 6abe e629 8b3d 8ae0 f83a a253 ecbd
00000260: c6f7 cf3d ce23 ddbd 4b64 61be 2a95 e7bd
00000270: 2d90 c3bc dfd3 0bbe 835c c43d d343 233e
00000280: e5bd 653d 2df9 1bbe e692 433d 6f00 17be
00000290: 412f dabd 333b 51be 66d8 83bd 3bc4 20bd
000002a0: 42b7 493e 569b 36be ff2a 0c3e 5264 33bd
000002b0: 8e0f 57be 5048 20be 875b f1bd 974b e3bd
000002c0: 7574 c43d 19a6 2b3d 3cee 3c3e 7742 c23d
000002d0: 3b5d 143e 01a8 8dbd f9a1 14be 8f31 0abd
000002e0: fe40 873d e470 3abc c991 dd3c 58f7 95ba
000002f0: 4540 1e3e 9adc 913c c0ba 33bd e187 0abe
00000300: 8c5f 19bd a6d8 5dbe 4a27 4fbe b689 193e
00000310: 3a88 2c3e a3ec ae3d d926 a2bd ffad 873d
00000320: 824c 52be 7177 343e eea1 98bd ed63 eb3d
00000330: 60c3 593c abec 863c 0da6 e83d 0545 023e
00000340: f257 90bc 97a4 1cbe 4ad1 74be 141b 2f3e
00000350: 0f9e 0fbc 59ab 2fbe dfb7 35be da7f 1fbe
00000360: 9fba c4bd 2766 d4bd 0b48 323d eacd 00be
00000370: 7ef3 62be 4b77 9c3d f6a0 4fbe 0633 ea3b
00000380: 926d 46be 97d1 4e3e f3a2 6d3e 4280 0e3c
00000390: 7100 633d 6bd9 0d3e c1b1 bbbd b845 213e
000003a0: f23b 1bbd d131 f8bd 61c3 c73d 685f b2bc
000003b0: c6da 063a 3775 413b d6b8 4dbe fd64 51be
000003c0: a62a 003c a915 44be 0a2b 033e 7528 3b3e
000003d0: 8963 c5bd be8b 84bc 411f 383e 8c48 c5bb
000003e0: 872b e2bd 7566 b33d d9b2 be3d 21ce 73bd
000003f0: 5782 c3bd 724d d13c 3fb2 6c3c dce2 1f3d
0.08190225 -0.038069893 -0.14732797 -0.017639793 -0.015516479 -0.07417225 0.004008853 0.110941134
0.022645617 0.105885416 0.003498662 -0.14271916 0.18504554 0.038833737 0.09840367 0.0828362
0.14280215 -0.08019371 -0.052309554 0.0696022 0.18401489 0.14915165 -0.12223483 0.20794669
-0.030935926 0.06596964 -0.09153925 0.07325041 0.19118474 0.17193289 -0.24971782 -0.04207343
-0.0059911325 0.11881697 0.2163987 0.24811846 0.18117923 0.022925284 0.07641052 0.0366965
0.161606 -0.09240432 0.07100392 -0.08771446 0.12381671 -0.19368091 0.15952952 -0.20097716
0.09222253 0.1096834 -0.20217566 -0.07298422 0.054947056 0.20023496 -0.2888609 0.08965417
0.033628184 0.04688243 -0.19620538 0.112879224 0.14784972 -0.1632584 -0.025322832 0.08968016
-0.041320972 -0.111765854 0.18077625 -0.10448515 -0.09837815 0.1985957 -0.00362913 -0.14504924
-0.010611397 0.083545476 -0.110455 0.016226413 0.04506321 -0.01578873 0.19937341 0.083941445
0.24010848 -0.065081805 0.18502413 -0.07020773 -0.032614164 -0.18036379 0.068786934 -0.13733284
0.036610674 -0.13359208 0.09968656 0.10832457 -0.12458962 -0.12403862 -0.026272986 -0.00068587693
0.0009281675 0.14250362 -0.10032993 -0.06908331 0.025213346 0.007735042 -0.018272223 -0.016615106
-0.12767023 -0.19752665 0.17910019 -0.14260252 -0.09481296 0.050288107 0.1738074 -0.046173003
-0.025749868 -0.041129112 -0.16133688 0.085650146 0.10968558 0.047987286 -0.14036447 -0.09325503
-0.07195808 0.14727734 0.09861375 -0.10246256 -0.20223749 0.026332263 0.16884199 -0.18290141
0.088670574 0.08368772 0.025457527 0.07005749 0.026879234 -0.078698345 -0.1315743 0.08190531
-0.042150497 -0.116660215 0.010143011 0.05901613 0.13347407 -0.14991996 -0.18806252 0.058524188
0.13229471 -0.13845478 0.20934452 -0.16720045 -0.22860931 0.06795101 0.0018987816 -0.11539389
0.10154681 -0.10797845 -0.22010915 -0.11307748 -0.02387246 -0.13655041 0.09587958 0.15943842
0.0560893 -0.15231772 0.047747515 -0.14746259 -0.10653544 -0.20432739 -0.06437759 -0.03924964
0.19698814 -0.17832693 0.13688277 -0.043796845 -0.21002027 -0.15652585 -0.117850356 -0.11098402
0.09592525 0.04190645 0.18450254 0.094853334 0.1448869 -0.0691681 -0.14514913 -0.03373867
0.06604193 -0.011379454 0.027047055 -0.0011441512 0.15454204 0.017805386 -0.04387927 -0.13528396
-0.037444636 -0.21664676 -0.20229831 0.14993939 0.16848841 0.085412286 -0.07917566 0.06624984
-0.20536998 0.17623688 -0.07452761 0.11493669 0.01329121 0.016470274 0.11359797 0.12721641
-0.01762006 -0.15297161 -0.23907962 0.17100173 -0.008765711 -0.17155208 -0.17745923 -0.15576115
-0.09605908 -0.103710465 0.043525737 -0.1257855 -0.22163197 0.07639941 -0.20276245 0.0071471957
-0.19377735 0.2019714 0.23206691 0.008697571 0.055420343 0.1385247 -0.09164763 0.15749252
-0.037898965 -0.12118877 0.097540624 -0.021774009 0.0005144294 0.0029519328 -0.2009004 -0.2044868
0.007822668 -0.19148888 0.12809387 0.18277152 -0.096381254 -0.016179916 0.17980672 -0.006020611
-0.110434584 0.087597765 0.09311456 -0.05952275 -0.09546345 0.025549624 0.014446794 0.03903471

arith.constant29 f4 [64]
00000000: 8f28 bfbc 0185 5f3c f5ac 8c3c 0c5b 063d
00000010: 8a0d 8abd 4240 2dbd 4ae7 cdbb f940 2ebc
00000020: 2610 60bd 4a0f 63bd 1ac4 6b3c 8a4a a43d
00000030: 44ac 43ba 0ecd 0abd 91e2 4cbc 4f9f d83c
00000040: a31d 4bbc afbb eebc fd06 a63c c684 22bc
00000050: 7ca8 173d 31f4 8cbc d53b 3b3d d7b1 d8bb
00000060: 489b 923d 3c6f c5bd 2beb 0abb 5b44 e33c
00000070: 9d1f 2abc 4373 fc3c 4cf9 62bd ec44 543c
00000080: fe35 f2bc 89cf c73b 76c7 3dbe b97d 69bb
00000090: d025 d3bb 9d79 d2bb 6570 5ab9 0760 66bd
000000a0: 1bd9 c0ba 4495 24ba ce69 ccbc 7424 7e3b
000000b0: b99c 48bd 0798 3d3c 0a27 31bb 5709 fcbc
000000c0: a171 cb3c defa b43d ebb2 423c 4fe0 37bd
000000d0: fcd7 1a3d 1d58 633d 25a4 b5bb 6ead 0dbc
000000e0: 6e6c 8aba e3d6 76bd d6f9 f7bc 1968 0d3d
000000f0: 82fb 1cbc 81cd b73c a53b c8bc 9b6c c1bc
-0.02333477 0.01364255 0.017172316 0.032801673 -0.067408636 -0.04229761 -0.0062836753 -0.010635608
-0.0547029 -0.055434503 0.014390016 0.0802203 -0.0007464329 -0.03388696 -0.0125051895 0.026443152
-0.012397203 -0.029142229 0.020267004 -0.009919351 0.037025914 -0.017206283 0.045711357 -0.006612997
0.07158524 -0.09640357 -0.00211973 0.027742555 -0.010383514 0.03081668 -0.05541353 0.012955885
-0.029566761 0.006097738 -0.1853312 -0.0035627915 -0.0064437166 -0.006423189 -0.0002083197 -0.056243923
-0.001471314 -0.0006278346 -0.024952795 0.0038779052 -0.048977587 0.011571891 -0.0027031326 -0.030766172
0.024834456 0.088369116 0.011883478 -0.04489165 0.037803635 0.055503953 -0.005543249 -0.008647306
-0.0010560879 -0.060263526 -0.030270498 0.034523103 -0.0095814485 0.02243686 -0.024442503 -0.023611357

arith.constant30 f4 [128]
00000000: c224 28bd f35f 163d aa48 10bd b525 563d
00000010: 72d7 23be d20e 93bc 1eaf a63d 0a67 70bd
00000020: e760 133d 3e37 bebc ae78 74bb 0815 a3bb
00000030: c594 4aba 546e 4b3c ad42 65bd df10 e4ba
00000040: 9262 62bd e3e2 2abd 5a76 623d 97bb 87bc
00000050: e5a4 62bd 775e 34bd f19e f1bc e1b5 433c
00000060: a7c0 2b3d b801 3d3c af8d 92bc 22e9 23bd
00000070: 926d 2fbd ae5d e9bc b534 66bc afcc 13bd
00000080: 7038 71bd 8870 873c a0d4 d53d a9a2 3e3c
00000090: c5a6 5fbd 2390 603d 0fcf 1d3d 8508 9dbc
000000a0: f0bb b2bd b5aa ebbc 63ef efbc 3985 b9bd
000000b0: 7752 6ebd a3bb 62bd 5ef3 0ebe 3cb1 d5bc
000000c0: a2ae 343d 8e4a 043c dc4d c23b eb99 2c3b
000000d0: 8e7f 923d 7d68 b5bd 4bce 40bb 301d 813c
000000e0: 525f b03c cd51 25bd f91f 233d 91ca 04bc
000000f0: a6ed 71bd f730 ecbc c0f4 81bd 59af 1e3d
00000100: 552b 69bc 3ee8 873d a1d0 643d a591 23bd
00000110: 8f58 2e3c 9310 04bc 386d b8bc 7da3 5abd
00000120: b9fd fbbc 0145 153d 61f7 86ba 6a4c c9bc
00000130: 2b65 c8bd 54ad 97bd f004 e53c 9e63 1fbd
00000140: 04d7 85bc c2ce 7ebd 81ef 413d 7621 1ebd
00000150: 38eb 083d fef5 cd3b c3d8 463c a83e 963c
00000160: 4495 7abd 403f 503c 1c00 12bd 6028 b3bc
00000170: 2e97 c6bc c7f7 6b3c 9bb4 cbbc 0b10 ba39
00000180: 8214 3ebd 362e 343c b451 913d 734c 95bb
00000190: a572 f1bd 556a f3bd 65e6 06bd 31a4 763c
000001a0: d2b2 98bd b67c 65bc 9574 993c 8838 193d
000001b0: a68e a6bd bf0f 00bd 4a39 483c dc04 91bb
000001c0: e662 d6bb b314 18bd 9ae4 82bd d5ef 50bd
000001d0: d522 ccbd eea4 2b3b d1f0 943c 1d44 ab3c
000001e0: 73bb 63bd 0bfd bbbd 3fff a7bd b954 07bd
000001f0: ea4d 97bc 3b01 1ebd 04ab 013c d8ef 61bc
-0.04105068 0.036712598 -0.035225548 0.052282054 -0.16000155 -0.017951403 0.0813887 -0.058692016
0.035981085 -0.0232197 -0.0037303376 -0.0049768724 -0.0007727857 0.012416441 -0.05597179 -0.0017400048
-0.055269785 -0.041720282 0.05528865 -0.016568942 -0.055333037 -0.0440354 -0.029494734 0.011945219
0.041931774 0.011536054 -0.017889826 -0.040017255 -0.042829104 -0.028487053 -0.014050652 -0.036083873
-0.058891714 0.016533151 0.104409456 0.011635461 -0.054602403 0.05482496 0.038527545 -0.019169101
-0.087272525 -0.028767923 -0.029288953 -0.09058613 -0.058184113 -0.055354726 -0.13960025 -0.026085488
0.044111855 0.008074416 0.0059296917 0.002633686 0.071532354 -0.0885782 -0.0029419835 0.015760988
0.021529827 -0.040361214 0.039825413 -0.008104936 -0.05906453 -0.028831942 -0.063455105 0.038741443
-0.014231523 0.066360936 0.055863027 -0.03993382 0.010641231 -0.008060592 -0.022513017 -0.05337857
-0.030760633 0.03644276 -0.0010297113 -0.02457257 -0.09784921 -0.074061066 0.027956456 -0.03891336
-0.016337879 -0.0622089 0.04734755 -0.03860613 0.033427447 0.006285428 0.012136641 0.018340424
-0.061177507 0.0127103925 -0.035644636 -0.021869838 -0.02424201 0.014402336 -0.024866393 0.00035488638
-0.046406277 0.010997346 0.07095662 -0.0045562326 -0.11789445 -0.118855156 -0.032934565 0.015053795
-0.07455982 -0.014006784 0.018732348 0.037407428 -0.08132677 -0.031265017 0.01222069 -0.004425628
-0.0065425513 -0.037129115 -0.063912585 -0.05100997 -0.09967581 0.0026190835 0.018181236 0.020906502
-0.055598687 -0.091791235 -0.08202981 -0.033039782 -0.01846977 -0.038575392 0.007914308 -0.013790093
